model2.pth (torch, 87097 bytes, 6 tensors)

embedding.weight f4 [6, 16]
00000000: 2093 02be 8142 96bd 00dc dd3d 9e0d c6be
00000010: 476e ac3f d84e e23e d70e 333f a237 81bf
00000020: 0a0a cc3f 126c 003f c12f 213e c8a6 76bf
00000030: 4e54 98bf 9462 5f3f d98f 303e 727f ec3e
00000040: 26ef 373f 3285 a7be 8143 ff3e 2cc3 a2bf
00000050: a43d e5bf 4adb f0bf 4d01 d9be 5732 413f
00000060: 751f 9c3b 0c8c 91be a399 6d3f 9d7d 893f
00000070: 2e0a 8a3f 8066 de3e 1fae d03e fcb1 6dbe
00000080: ecb3 143f 002b d1be 1141 17bd ae63 9abf
00000090: a7bd 533d ebcb 8dbf c672 45bf 8255 0840
000000a0: 72b8 1abf a7a8 36be b504 17bf 1a19 db3e
000000b0: 42c2 a93e 677c bdbf 48e6 b63f b8d7 a2bd
000000c0: 6716 6a3e 848c c23e 8a5c 8fbf 6dc7 723f
000000d0: 0b65 fbbf 0bf7 ca3f 863e c7be 9988 b5be
000000e0: 9913 a8be 8f62 9a3f 41dd 42bf dfec 9e3d
000000f0: ba07 563f cf0c 0dbf 3087 083f ba02 e8bf
00000100: ba5c 13bc d81f 06bf c68b f33e 81b9 823f
00000110: 99fe 103f c308 82bf aba9 e53d d2a3 c7bc
00000120: 6d9b 833f 224c 273f fe8c 073f d8d4 40bf
00000130: 3349 2ebe 2970 183f fdec 0040 1442 b2be
00000140: c55e 55bf 6595 71bf ecdc 89bf 8e49 01bf
00000150: f81e 0dbf a52e 983e d753 c6be 0670 a23f
00000160: 24c0 a4bc dbd9 4bbf d73f 783f faa2 18bf
00000170: ac78 52bf cea1 eabf 5743 d03f 9205 23bf
-0.12751436 -0.07336903 0.10832977 -0.38682264 1.3471154 0.44200778 0.6994452 -1.0095103
1.5940564 0.501649 0.15740873 -0.9634824 -1.1900728 0.87259793 0.17242374 0.46190983
0.71849287 -0.32718807 0.4985619 -1.2715812 -1.7909436 -1.8816922 -0.42383805 0.7546744
0.004764492 -0.2842716 0.92812556 1.0741459 1.0784357 0.43437576 0.40757844 -0.23212427
0.5808704 -0.4085312 -0.036927287 -1.206167 0.05169454 -1.1077856 -0.77128255 2.130219
-0.6043769 -0.17837773 -0.5899156 0.42792588 0.3315602 -1.480359 1.4289026 -0.07951301
0.22860108 0.3799783 -1.1200116 0.9483555 -1.9640211 1.5856642 -0.3891489 -0.35455778
-0.32827452 1.2061328 -0.76118857 0.07760023 0.8360554 -0.5509767 0.5333128 -1.8125832
-0.008994276 -0.5239234 0.47567576 1.0212861 0.56638485 -1.0158924 0.11214002 -0.024370108
1.0281807 0.65350544 0.5294951 -0.75324774 -0.17020111 0.5954614 2.0144646 -0.3481604
-0.8334773 -0.9436858 -1.0770545 -0.5050286 -0.5512538 0.29723087 -0.3873584 1.2690437
-0.020111151 -0.79629296 0.9697241 -0.5962368 -0.8221538 -1.8330629 1.627055 -0.63680375

lstm.weight_ih_l0 f4 [256, 16]
00000000: 1d19 ed3e 37fe 063e 1a28 123f 39f8 00be
00000010: 1964 8cbd 8591 bbbe df9f d0bc b60f e33d
00000020: 21d6 8e3d 68e6 943e f25e 38be 63cc 013f
00000030: 636d d83e af68 813e 421b ea3d 6a58 7f3e
00000040: 5143 df3b 34e3 f0bd 9fd7 95bd d47d 87bc
00000050: c67f 2ebd 2071 9abd 432c 08be fddf da3c
00000060: 785c 163c 46b3 893d 8e68 0b3e 04cd 35be
00000070: e24f 783c eb86 04be 963a 453d 5b6c f1bd
00000080: 4c19 193e 89c2 003e d62e 513d 059e cebd
00000090: 034a 143c 35ae 62bd 57c3 69bd ccd2 f43d
000000a0: 2739 75bd 3ff5 e5bd 0abf efbd 7ca9 b03d
000000b0: 01b6 6dbc 4947 85bd 3e7b aabd 219c 81bd
000000c0: afac 6f3e 8e95 35be eb3d eebd 5630 d0bc
000000d0: 0799 fbbd 8cfb 8dbd 004e 76be 3685 60bc
000000e0: 168e 1fbe 4d10 bebc 828d f13d 689a fc3d
000000f0: d31a 563e 721f 16be 3802 c33d d1cf 80be
00000100: f78b 243e 006e 733d 2bc2 5b3e a95b 4dbe
00000110: d056 c33b ff9c c4be 8bee 2c3d 84ae 853d
00000120: 865f c8bd 7da6 37be 8134 e23d 81d2 bc3e
00000130: cbe0 423d f839 2bbe 611a 243c a98a 673e
00000140: 16d6 3fbe 4267 44be 7856 b8bd 846e 9abd
00000150: 44b7 45be 943f 1dbe 2b18 0ebd b420 433e
00000160: 78cd 02be 69fe 943d 41f7 1a3a db9e 873d
00000170: 4220 193d 1eb8 e43c dc55 f53d 303c 30be
00000180: 9289 9d3c 7edf bdbd 33ed 49be 2d4c 823d
00000190: 39d9 53be 2fc6 c4bd 11f1 83be 4abf 843c
000001a0: 02ba d83d 6a0c 193e 47fc 553d 1497 29be
000001b0: 5408 8e3d 5d64 5dbe 8c4d 753e 7fef 4bbe
000001c0: 6c80 573e 4203 9d3c 2cf6 383e 75a8 293e
000001d0: c242 56be 9e03 3ebe 26f8 37be 3d8e 143e
000001e0: 958d 873e 5742 6c3e e6dc ea3d 8638 8d3d
000001f0: 43b5 843e e4b1 8e3e 89dc 103e 4dc9 97bd
00000200: ecc7 363d 4a0c 82be 4ad5 ec3e 85c8 62bd
00000210: 605d 3b3d 00c9 ccbe 88e0 aa3d fffd f33d
00000220: 1a56 053f 7ab5 0cbe 33f3 c33e a136 54bd
00000230: ecb2 a4bd 4f94 9d3c 8cc5 693e 1d53 103e
00000240: 072a 303c ca1a 493d fa8f 263e 198a 9c3e
00000250: ad5d 9d3e 9567 0ebe 6d8e 743e 559d 5cbe
00000260: 1279 f23e fce8 363b 7a70 2fbd f9a9 90be
00000270: f4c8 9bbe 7149 803e 4716 b83d f857 663e
00000280: cf2a 05bd ccb7 efbd 94d1 8d3e bc00 173e
00000290: f65a 6bbd 6d74 3fbd 41d4 323c 5c8a c6bd
000002a0: 03bf 8a3e 2cb2 4ebd 27fa f93d bd8c 4dbc
000002b0: 4720 df3d 3647 243d e037 b13d b308 443e
000002c0: 89a6 ff3d b1d1 bcbe 10e7 343e 80f3 4dbe
000002d0: 6c31 c1bd 689e c8be c16e 65be 6176 a03e
000002e0: 88aa c23c c978 22be 857c 643e 84a9 9f3d
000002f0: 0435 1cbd a85d 20bd 9151 b33d 6dd6 cb3d
00000300: f7c2 9d3d 24fa efbd 5a54 9a3d b405 0bbe
00000310: da84 11bc 750e 94be 9600 88bd ff91 283e
00000320: 349f 94bd fc49 d93d 8174 aa3d f5e9 9c3c
00000330: 9532 ed3c dc70 83be 98d9 4f3e e7b6 b73c
00000340: 3dc9 313f 83f6 03bb 6780 893e 2c49 ccbd
00000350: 1020 55bc 968c a2bd 30ad 333b 7afc 09bd
00000360: 7485 16be 4c5f d53d e211 aabd 77a7 743e
00000370: 0ab6 0c3f 2023 c43d 0495 78bd 604b e73c
00000380: 79d1 583e 2897 74bd 3e23 70bd 31e9 09be
00000390: 4cde 64bd 0e32 e0bd bfad 41be 1f58 653e
000003a0: b50c 89bb eef9 723d f3ce 45bd f058 9b3d
000003b0: 0052 173e ed2d 80bd 5ea4 d03d be0a f4bd
000003c0: 018a 7d3b 8827 36be 322f edbd 13f2 d5bd
000003d0: 2a97 5cbd 3147 27be 81dd 0ebe 100b 9d3d
000003e0: 0b6e cfbd d9bc 0dbd 3734 82bb 194d 733d
000003f0: 83a8 bfbc fea6 c1bc cf61 ee3d c96d 0fbe
0.46308222 0.13182913 0.5709244 -0.1259469 -0.068550296 -0.3663446 -0.025466857 0.11086981
0.069744356 0.29082036 -0.18004969 0.50702494 0.42270955 0.2527518 0.1143098 0.24936071
0.0068134447 -0.117620856 -0.07316517 -0.016539492 -0.042602323 -0.07541108 -0.13298135 0.026718134
0.00917732 0.06723647 0.13614103 -0.17753989 0.015155764 -0.12942092 0.048151575 -0.11788245
0.14951056 0.1257421 0.051070057 -0.100887336 0.009050849 -0.055341918 -0.057071056 0.11954269
-0.059868958 -0.112284176 -0.1170636 0.086260766 -0.014508725 -0.06507737 -0.08324288 -0.06328607
0.23405717 -0.17732832 -0.11632904 -0.025413673 -0.12285047 -0.069327444 -0.24053192 -0.013703635
-0.15581545 -0.023201132 0.117945686 0.12334138 0.2090867 -0.14660433 0.095219076 -0.2515855
0.16069017 0.059431076 0.21460788 -0.20054497 0.0059612766 -0.3840103 0.04221968 0.06527427
-0.09783845 -0.17934604 0.110451706 0.36879352 0.04757766 -0.16721332 0.010016055 0.22611488
-0.18734011 -0.19180015 -0.090008676 -0.075406104 -0.19308192 -0.15356284 -0.034691017 0.19055444
-0.12773693 0.072750874 0.00059114775 0.06622096 0.03738428 0.027919825 0.11979267 -0.1721046
0.019230638 -0.092711434 -0.1971939 0.063621856 -0.20688333 -0.09608113 -0.25769857 0.016204495
0.10582353 0.14946142 0.052242544 -0.16561538 0.06935182 -0.21620317 0.23955363 -0.1991558
0.21045083 0.019166593 0.18062657 0.16568168 -0.20923904 -0.18556067 -0.17965755 0.14507385
0.26475206 0.23072182 0.11467914 0.068955466 0.25919542 0.27870095 0.14146627 -0.07411442
0.044624254 -0.254 0.46256477 -0.05536701 0.045743346 -0.399971 0.08343607 0.1191368
0.52084506 -0.13741103 0.38271484 -0.05180991 -0.08041939 0.019235758 0.22829264 0.14094205
0.010752208 0.049097814 0.1626586 0.3057411 0.3073553 -0.13906701 0.23882456 -0.21544392
0.47357994 0.0027909866 -0.042831875 -0.2825468 -0.30426753 0.2505603 0.08988624 0.22494495
-0.03251153 -0.11704978 0.27698958 0.14746374 -0.057459794 -0.04674189 0.010914863 -0.09694359
0.27098855 -0.050462887 0.12205916 -0.012545762 0.10894828 0.040106975 0.086532354 0.19143943
0.12482936 -0.36878732 0.17666268 -0.20112419 -0.094332546 -0.39183354 -0.2240553 0.31340316
0.023762956 -0.15866388 0.22313125 0.077960044 -0.038136497 -0.039151818 0.08755792 0.09953008
0.07703202 -0.117176324 0.0753562 -0.13576394 -0.008881772 -0.2891728 -0.06640737 0.16461943
-0.07256928 0.106098145 0.083230026 0.019154528 0.028954783 -0.25672042 0.20297849 0.022426082
0.6944769 -0.0020135946 0.26855776 -0.09974894 -0.013008133 -0.07936971 0.002741646 -0.033688046
-0.14699346 0.10418567 -0.08304192 0.23892008 0.5496527 0.09577012 -0.060688987 0.028234184
0.21173657 -0.059714466 -0.05862736 -0.13467862 -0.05587606 -0.10947047 -0.18913935 0.22396897
-0.004182423 0.059320383 -0.048293065 0.07585323 0.14777374 -0.0625876 0.101876006 -0.119161114
0.0038686993 -0.17788517 -0.115812674 -0.104465626 -0.0538551 -0.16335751 -0.13951685 0.07668126
-0.10128411 -0.034603927 -0.0039735097 0.059399698 -0.023395782 -0.023639198 0.11639749 -0.14006723

lstm.weight_hh_l0 f4 [256, 64]
00000000: 6f15 92bb 0eb4 8d3d 4ddc 16be bb5f 9ebd
00000010: b033 eebd 9c0b 17be 9610 87bd 110f e3bd
00000020: 14f6 48bd 6fb2 aebc cda6 063e 1ef4 91bb
00000030: 395a f0bc 564e a03d 94d1 a3bb a08c 043e
00000040: 3a3d 5bbd 3479 f83d 9bf3 cbbd 7cbe 0abc
00000050: 453c 2c3e b604 efbd 4d20 c53b 0efd d33c
00000060: 2752 46be e61a 883d 1c3f 9e3e 0af3 f33d
00000070: af1d a13d b736 f5bd 1ab7 8dbd 8a34 3abd
00000080: 9f0f b93d 827d de3d b282 6ebe e26d 1b3d
00000090: e91d afbd 0da3 813d a5a1 ce3b 6afb ecbc
000000a0: 0e98 243e cc3f 1b3e 1de7 843c b95c f2bd
000000b0: 4ea3 e73c aabd 8f3d ecc3 1a3b d006 25bd
000000c0: a276 d93d 834e aebc b661 b1bd 0d33 abbc
000000d0: 1d92 7abd f87e 573c 5bf5 c3bd 8a2c 403a
000000e0: 2b63 873a c4a4 36be 1b36 213e 7df0 4c3e
000000f0: 96e1 33be 6bf1 a83d f776 8ebe dabe 613d
00000100: 80d8 46be 2593 b23d 4964 a7bd e627 f9bd
00000110: 4e29 debd 9abf cfbd 1777 19bd d3e8 26be
00000120: 03ab 2a3c 8eee 183e e075 333e 81da 94bd
00000130: 1bc4 1bbd 1470 363e bd4b e23d eb00 423e
00000140: b471 08bd 1475 b0bc daf2 93bd a226 a0bd
00000150: b66b 97be cdf2 08be bca7 b63c 1c75 00be
00000160: 057f 5bbc ba5b 81bd 4206 1c3c a61a 903d
00000170: 1f2d 09bc 466f 0cbd 2bf8 573d 4d50 68bd
00000180: 23b4 123e ea10 1f3e ae25 70bd a58f 393e
00000190: dcfa 09bd 7636 e4bd c494 d93d 0398 253e
000001a0: 914e 5b3d 233b a33d 4fce 9fbd 3e4a b4bd
000001b0: c36c ec3d 055d 13ba 47c8 553b 48ca bfbc
000001c0: 5d69 043e 456f c1bd 03bd debd def1 c9bd
000001d0: 6322 12be 7b50 f2bd c7a4 adbd 420c 533e
000001e0: 1dd0 283e c733 943d 76c3 5fbd 2221 be3d
000001f0: 0ad1 2abe 365a 273e 1071 0ebd 077c 2b3e
00000200: d321 50be 835f b63c 95fa 433d f9b2 913d
00000210: 7e4f 90bc 26a2 59be e16e 9ebc 9977 4abe
00000220: 8898 bc3d c50c 8e3c ae1f e23d 464a 6f3d
00000230: 7fbe c6be fb88 ed3d e086 afbc adc2 4b3e
00000240: a17d 41be 1055 f33c ca01 69bd 94a3 b23b
00000250: 11c4 b6be 205b 9c3d 5125 12bd 7376 f1bd
00000260: cbe2 e8bd 7074 b2be 4e0d 3dbd 6eaa 8e3c
00000270: 928f 033e 6908 ef3b ea0c 3f3e 0b0c 713d
00000280: 34f7 1f3e 419d 0d3e b686 61bd 1c50 cb3d
00000290: ba4c 5fbe 6b4a 4cbe edaa 4ebe 3221 983d
000002a0: 7bd8 8a3d a70a 853d dbb2 85bd 638e e6be
000002b0: 6670 82bb d17d 6e3d 94ee 11be 9b45 14bc
000002c0: edc8 163e a137 343e da14 f2bd 0c3b 02be
000002d0: cb5c 19be c48c 0dbe c47f 16bd f1da 7dbd
000002e0: 57fb 1a3e 0426 54be c7be 583c c74d bf3d
000002f0: 0336 43bd 38ba 3a3d 9712 80bc f3d6 a23c
00000300: 1edb 2b3d 4eaf cf3d 459e d8bd 990c 48bd
00000310: 9b8e febd 9135 9cbd efe3 5b3e d615 39be
00000320: eb0e 09bd a5d7 ae3d 459b 093e 1dba 85bc
00000330: 1c9a efbd 0494 4b3e 92fe ae3d e479 263d
00000340: 56a0 52bc 007c 843d a72e d03d 3c3f 98bc
00000350: c23a 1dbd ffff 063d a17a 453e 5553 98bd
00000360: 0eb2 30be 7f30 84be 8ac2 193e 314a f9bb
00000370: e008 bdbc cdb7 57be c61b 83bc 494e 1f3e
00000380: bbac 183e e9d5 b33d 57f1 d33c f287 e1bc
00000390: 0dfc 953c 5a0c 9bbc 7ac8 df3d 3229 103e
000003a0: 1d26 5f3b 2f87 c73d 87a0 26bd 9154 afbe
000003b0: 6fd3 a13a 9774 a53d 0feb fabd 00c8 193e
000003c0: a3ff 5c3b 5f66 05bc b519 853d f5d1 02bd
000003d0: 1eb5 c73b 8b64 50be e4a8 02be c54b 2a3c
000003e0: e50f 683e d705 1abe 562b 33bd 4dbc 343e
000003f0: fa6e b2bd 28bb 3c3e 834d 52be 8fdd be3d
-0.0044581215 0.06919108 -0.14732476 -0.07733103 -0.11630952 -0.14750522 -0.065949604 -0.11086858
-0.049062803 -0.021325318 0.13149567 -0.00445415 -0.029339897 0.078274414 -0.004999349 0.12944269
-0.053525187 0.12132493 -0.099585734 -0.008468267 0.16819866 -0.116708204 0.0060158134 0.025877502
-0.19367276 0.066457555 0.30907524 0.119115904 0.0786699 -0.11973327 -0.069196895 -0.04546026
0.090361826 0.108637825 -0.23292044 0.03794659 -0.08550627 0.063299276 0.0063058906 -0.028928477
0.1607363 0.15161055 0.016223485 -0.11834092 0.028276112 0.070185974 0.0023615314 -0.0402897
0.106183305 -0.021277672 -0.08661215 -0.020898366 -0.0611745 0.01315283 -0.09568282 0.00073308556
0.0010329237 -0.1783629 0.15743296 0.20013614 -0.17566523 0.08249172 -0.27825138 0.05511365
-0.19418526 0.08719472 -0.08173425 -0.12165813 -0.10847722 -0.10143967 -0.03746709 -0.16299753
0.010416749 0.14934751 0.17525434 -0.07268239 -0.038028818 0.17816192 0.11049602 0.18945663
-0.03331156 -0.021540202 -0.07224055 -0.078198686 -0.29574364 -0.13373871 0.022296779 -0.12544674
-0.013396983 -0.063163236 0.009522976 0.07036333 -0.008372574 -0.034285806 0.052726906 -0.056717206
0.14326529 0.15533796 -0.058629684 0.18121202 -0.033686504 -0.111432 0.10624078 0.16171269
0.053541724 0.07970264 -0.07803022 -0.08803223 0.11544182 -0.0005621466 0.0032620595 -0.023411885
0.12930818 -0.09445051 -0.10875895 -0.09860586 -0.1427093 -0.11831757 -0.084786944 0.20610145
0.16485639 0.07236438 -0.054629765 0.09283663 -0.16681305 0.16343006 -0.034775794 0.16746531
-0.20325403 0.02226234 0.047846396 0.071142145 -0.01761603 -0.21253261 -0.01933998 -0.19772185
0.092087805 0.017340073 0.11041199 0.058420442 -0.38817212 0.115983926 -0.021426618 0.19898482
-0.1889558 0.029703647 -0.05688647 0.005451629 -0.35696462 0.07634568 -0.03568012 -0.117901705
-0.11371382 -0.3485446 -0.046155266 0.017415252 0.12847736 0.0072947037 0.1865727 0.058849376
0.15621644 0.13829519 -0.05506011 0.09927389 -0.21806613 -0.19950263 -0.2018239 0.074282065
0.067795716 0.064961724 -0.065282546 -0.45030507 -0.003980684 0.058225457 -0.14251167 -0.009049798
0.14725085 0.17599346 -0.11820383 -0.12717837 -0.14976804 -0.13823229 -0.03674294 -0.061976377
0.15134941 -0.20717627 0.013229079 0.09341007 -0.04765893 0.04558775 -0.015633864 0.019877886
0.041957013 0.101408586 -0.105770625 -0.04884014 -0.124295436 -0.076274045 0.21473669 -0.18074736
-0.033461493 0.08537225 0.13438137 -0.016324097 -0.11699316 0.19880682 0.08544649 0.040643588
-0.01285561 0.064689636 0.10165148 -0.01858484 -0.038386114 0.03295898 0.1928506 -0.07437769
-0.17255422 -0.2581825 0.15015617 -0.0076077213 -0.023075521 -0.21066208 -0.016004454 0.15557207
0.14909641 0.087810345 0.025871916 -0.027530644 0.018308664 -0.018926788 0.1092691 0.14078215
0.0034049817 0.09742581 -0.040680435 -0.34244207 0.0012346337 0.080788784 -0.12251865 0.150177
0.0033721707 -0.008142083 0.06499044 -0.031938512 0.006094589 -0.20350854 -0.12759739 0.010394041
0.22662313 -0.1504129 -0.0437425 0.17649956 -0.08712573 0.1843077 -0.20537381 0.09319603

lstm.bias_ih_l0 f4 [256]
00000000: 5601 943d 92aa 863e 21cd e13c c3fb 253d
00000010: 7d0a d6bd 8a05 233e f6f4 8e3e c0d6 8e3e
00000020: a9d5 343e 5cd3 febd e114 14bd 6d6c 563d
00000030: f0c2 8e3e c2d7 72bc d28f 713d dd42 f6bb
00000040: eab2 b03e 7980 e43d dfa4 3abc 6573 9b3e
00000050: 3744 51bd cacf 9d3e ba4c 8cbc 002b c13d
00000060: 7612 ed3c 6a13 9bbe 6467 fc3e ee3f 0c3e
00000070: 3d16 d33d cb93 343e ab9a f23d 4c14 a23e
00000080: 9a4e 86bc 5fe8 f53d b2ac 1ebe 4688 9f3d
00000090: 8be0 c4be d1eb 1d3d 4c38 943d cf9e db3c
000000a0: 886c 353e cadd 843d c5d8 9e3d 77f7 9c3e
000000b0: f0c1 9a3a a149 ea3d 4bf1 943e 6107 4a3e
000000c0: 0ecc cf3c 3051 9b3e 6326 593e 5df6 3f3e
000000d0: 978e 8f3e 2772 17be a3fc 6a3e 313e 083e
000000e0: 77e4 423e 9169 43bc db06 593e 71fc 473d
000000f0: b8f0 2b3e d9b6 9f3d a5f2 d23d 1c9c 5c3e
00000100: acdf 733e 2b34 cc3c f7b1 c43c 6e63 373d
00000110: 3644 e1bd 912c 913c fd8d e83d 9daa c7bc
00000120: 2097 833b 8e03 20be 2340 ebbd 46c3 37be
00000130: f0ef df3d 993a a13c 139d 3b3e bdc3 1f3e
00000140: 41cc 613e 0311 b63d bafc 923d 32c5 273e
00000150: 52cf 79bd ae52 d83d 826f 043e 4e50 0dbd
00000160: 8d3d 423e aced 9c3e f734 51be be1e e73d
00000170: 0041 1fbe 407a b43c b688 093e 49f8 a73c
00000180: f664 febd 82a6 2c3d 1fac 343e 3cec 193e
00000190: 80c7 dabb 21f6 3fbb a410 333e ff2d 08be
000001a0: d20e 123e b166 993d 809c 453e 312a 8bbd
000001b0: 8dab b6bd f5a9 ea3c 0a47 e63d db1e 4a3e
000001c0: 45fa 0e3d 1706 ca3d 2e93 173e 409d 6dbc
000001d0: 9367 3e3e 8e21 433e 39c7 9cbc 615a 3abc
000001e0: 8086 823d 1e88 393d 25ac 23bc b45d be3d
000001f0: dbc8 103e 4cf4 7dba 2b78 013d e41e 6ebd
00000200: deee 51be a7dd 62bb be98 3cbe e41d 0abe
00000210: 8027 273e 6abe a7bd e200 ca3d 8175 68bd
00000220: a25e 8e3d 44dd af3d c908 7c3d ea84 25be
00000230: 636b 553e af4b 023e c702 953d ea5d 2c3e
00000240: b518 5c3e e635 4f3e 3c71 bebc 15fa 05be
00000250: b749 6f3e 68fa 8cbd 5a75 113d 0087 25bc
00000260: 9785 b43b 2e15 a73d c95a 88be 1e53 163e
00000270: 8be9 423e da16 e0bd cb0c a03d bbe0 7e3e
00000280: 3e73 313e 76bf cb3c 4dbf bfbb 3f27 1c3e
00000290: 1a30 bfbd e4bd acbd a0dd 5c3e a375 1c3e
000002a0: 580a 053e 44a7 653d 476b 0ebe 0e67 923e
000002b0: 388f b53d 75bc 103e 0147 1cbe 0a3f bc3c
000002c0: 15e6 143c 7f6a 853e d7a2 59be b6d9 65be
000002d0: a0a0 4bbe 6a3d 6a3d 793f f3bd fc07 6e3d
000002e0: 837a 563e 63b3 bdbc 34ad e13d 5998 e03d
000002f0: 0ec1 31be 2076 443e d2f1 913e 62d9 f83d
00000300: 4ccd 153e c097 583e fc40 04be c903 383e
00000310: 1157 cfbc 2d91 4ebe 6c92 bd3c e3f8 8dbd
00000320: 8728 3f3e 7b6d 14be 8c5b 5fbd a97b 143e
00000330: 4f3b 2d3e bee8 3f3d 392a 233e 6029 5cbe
00000340: 5a13 3e3e 4ddc 943d ea14 e53d b3c1 efbd
00000350: 32c8 613d ab84 61bd d076 a73c 5274 19be
00000360: 9aa2 09bd 0157 b53e cb17 d93e 1123 a03d
00000370: 4c6e 373d ca0a 273d 0f86 20be 49e8 903e
00000380: 793f 49bd 1867 ad3c 9ad6 1dbd 8b0c 2abe
00000390: 9bcf ef3d 317d a2bd 2228 d73c 7b95 4bbd
000003a0: c60f 613e 5206 33be e37b b53d 90e8 a63e
000003b0: 1c0e 3cbe 9b8e 5cbd 9a15 0f3d f18c 0d3d
000003c0: 2a8a 54bd 7fdb 473d e7bb a7bd d767 4abe
000003d0: 7eea 6c3d df57 8abe 0d0d 103d 1aa8 cf3c
000003e0: 48f8 2f3c 3ee6 0ebd 7608 5f3e 110d 03bb
000003f0: 5c1a bcbd 05a4 a4bb 34ea 243e b18a 543b
0.07226817 0.2630201 0.027563633 0.0405233 -0.10451219 0.15920082 0.27921265 0.27898216
0.1765963 -0.12442657 -0.036152724 0.052349497 0.278831 -0.0148219485 0.05897505 -0.007515295
0.345115 0.11157317 -0.011391847 0.30361477 -0.051090445 0.30822593 -0.01712643 0.0943203
0.028939467 -0.3028825 0.4929763 0.13696262 0.10306976 0.17634504 0.11845907 0.3165611
-0.016394902 0.12007212 -0.15495566 0.07789664 -0.38452563 0.03855497 0.072373 0.026809124
0.17717183 0.064876154 0.07756189 0.3065755 0.0011807065 0.11439825 0.29090342 0.19729377
0.025365856 0.3033538 0.2120605 0.18746324 0.28038475 -0.1478964 0.22947936 0.13304974
0.19032465 -0.011927024 0.21194021 0.04882473 0.16791046 0.07798547 0.10300187 0.21543926
0.23815793 0.02492722 0.024010642 0.044772558 -0.10999338 0.017721446 0.11355207 -0.024373347
0.0040158182 -0.15626356 -0.114868425 -0.17945585 0.10934436 0.019681262 0.18321638 0.15602012
0.22050573 0.088899635 0.0717711 0.16383818 -0.06098873 0.10562645 0.12933162 -0.034500413
0.18968792 0.3065008 -0.2043036 0.112851605 -0.1555214 0.02203095 0.13431057 0.020504134
-0.124216005 0.04215098 0.17643784 0.15031523 -0.0066766143 -0.0029290991 0.17486817 -0.13298796
0.14263466 0.0749029 0.19297981 -0.06795157 -0.089194395 0.028645495 0.112440184 0.19738333
0.034906644 0.09864443 0.14802238 -0.014502823 0.18594198 0.19055769 -0.019137966 -0.011374087
0.0637331 0.045295827 -0.009989773 0.09295216 0.1413912 -0.0009687587 0.03160874 -0.05813493
-0.20501277 -0.0034616978 -0.18417642 -0.13487965 0.16323662 -0.081906155 0.0986345 -0.056752685
0.069516435 0.08587125 0.061531816 -0.16163984 0.20841746 0.12724183 0.0727592 0.168327
0.214938 0.20235404 -0.023247354 -0.1308368 0.23367964 -0.06883699 0.035512306 -0.010102987
0.005509089 0.081583366 -0.26631764 0.14680144 0.19034402 -0.109418586 0.0781494 0.24890415
0.17329118 0.02487157 -0.0058516623 0.15249346 -0.093353465 -0.08434656 0.21568918 0.1527925
0.12992227 0.05606772 -0.1390811 0.2859425 0.088652074 0.1413439 -0.15261461 0.022979278
0.009088059 0.26057813 -0.21253525 -0.22446331 -0.19885492 0.057187475 -0.11877341 0.058113083
0.20945172 -0.023156827 0.11019364 0.10966558 -0.17358801 0.19185686 0.28504807 0.121508375
0.14629096 0.21151638 -0.12915415 0.17970194 -0.025310071 -0.20172568 0.023141108 -0.06932237
0.18667804 -0.14494888 -0.054530665 0.14500298 0.16917156 0.04685282 0.15934075 -0.21500158
0.1856207 0.072685815 0.1118563 -0.11706867 0.05512256 -0.055058163 0.020442396 -0.14985779
-0.033602335 0.3541794 0.42400965 0.078191884 0.04478292 0.040781774 -0.1567614 0.2830222
-0.049132798 0.021167323 -0.038534738 -0.16606347 0.117095195 -0.079340346 0.026264254 -0.049703103
0.21978673 -0.1748288 0.0886152 0.32599306 -0.18364757 -0.053846937 0.03493271 0.03455824
-0.051889576 0.048793312 -0.081901364 -0.19766174 0.057840817 -0.27020165 0.035168696 0.025348712
0.010740347 -0.034887545 0.21780571 -0.0019996802 -0.09184715 -0.0050244355 0.16104966 0.00324313

lstm.bias_hh_l0 f4 [256]
00000000: 1251 843d 2cdc 8c3d 101e d4bc fbdc 873d
00000010: fd4d a63c e59d 783d a4bf 263e ff3b 653e
00000020: e5ad 233e f7ff b1bd 2a3c 83bd a4ee 753e
00000030: 5f89 0e3e 41ad 293d e234 213e 69d1 4f3d
00000040: 509e 983e e5c1 3d3e 4839 853d 29d9 d63d
00000050: fa5e b6bc 4ebb d43d ab3a e5bc 83f2 913c
00000060: 4afe f63d 8dac b9be 4b6e b03e 965d dc3c
00000070: d301 edbc 437a 7d3e 96d6 89bb 19cd c23d
00000080: 689f 3cbc 1541 d03d e2e5 f4bd aa2a 213e
00000090: 686e 80be 6bfa 523d 5044 1abb 506a f03b
000000a0: a1ea 6b3e 9eea b63c 4f16 f03c 3e25 293e
000000b0: 8ad6 00be 4485 2b3e 7e40 3e3e c8a0 ab3d
000000c0: 0c6c fa3d 7fa0 af3e 2725 7c3d 7630 ae3c
000000d0: 7719 3b3d a690 81bd b622 623e daa9 633e
000000e0: 7ea9 673e f35f 083e 9a08 643e 74c9 433d
000000f0: 4fb9 ef3d ce0b 2d3d edcd c23d 906d 8a3d
00000100: cbe8 473e 8e26 2abd 2c0f 2cbd a2c9 3c3e
00000110: ed63 cd3c 5819 f83d 1cde 1a3e 24da c6bd
00000120: 2275 a1bd 1797 13be c5e2 dabd de5d e53c
00000130: 7706 103e 81de ed3b c127 19bd 8160 a23d
00000140: 4333 633e b99b a63b 838e 58bd 1ec1 e53c
00000150: 3bbb c43d d285 473d 2925 373e 8696 17be
00000160: 4343 5a3c d161 9d3e f20b 5ebe 67f1 613d
00000170: 2889 d0bc 4c2a 1fbc 8012 073e bd52 1abc
00000180: 3f08 cebd 9771 7a3d 788d a63d 04e6 293e
00000190: 9714 92bc c6bc 113e 7208 733e 236f a83d
000001a0: a065 1d3e ffc4 36bd 2028 d93d f0cc 3fbe
000001b0: 3a3a e0bd 4acf 803d 7d2d 453e c34d ef3b
000001c0: d4d0 193e 28f5 1a3e 6098 183e ecd5 073e
000001d0: 0948 1d3e 4255 bd3d 0954 cf3d 140b 5dbd
000001e0: 1c03 d63d 486b ce3d 85b6 e83d 758e eb3d
000001f0: 8299 353d 5bf2 243e f0c0 0abd e9d1 673c
00000200: 51cd bbbd ebd2 9b3c f172 32be 17f8 75be
00000210: 8145 183e 2c75 5abe 7067 0f3e 987d 3fbe
00000220: 1c19 983d 0c88 a03d e0b9 3c3e 55f0 cdbd
00000230: 1bec 743d fd62 0d3e 4e8f 873d 205b 2c3e
00000240: c067 363e 9613 8a3e 6db7 2cbe e991 3cbe
00000250: 6bab 0a3a 9b04 edbd fc16 053e 8b43 38be
00000260: ac79 f3bd 10d8 353e c45d 13be fcbf cf3d
00000270: 65f7 ff3d ca7f 35be 22dc fa3d b0af 133e
00000280: f4df 083e 4581 443e 7f4c 5cbd cfb2 193e
00000290: f85e ac3d c4dd 67be 916b 0a3c 6fe1 5cbd
000002a0: 8190 e73d 1455 043e 03a6 2dbe 1224 193e
000002b0: 39e5 20bd e480 8a3c b7ae 73be 32aa 433e
000002c0: b68e 0f3e 9440 043e bdb9 1cbe 4882 14bd
000002d0: daf2 15be 8c19 cf3d 6e01 32ba d134 3d3e
000002e0: 2fa7 163e 5538 d1bd 11e8 6a3d 11bc 333e
000002f0: d162 73bb 0532 013e 2abc 233e 58b1 f83d
00000300: faf0 403e 0bc0 553e a6b1 70be 87ac 8f3e
00000310: cae5 71bd be16 eb3c 8b36 a53d 2b4e 95bd
00000320: b280 56bd 9ced 2abe 4bc6 d7bc a4eb d03d
00000330: 27cb 973e 04c1 51bc 444d 96bd b167 48bd
00000340: 2680 583e e668 b13c 28c7 97bd 5024 6f3d
00000350: 923a 0e3d abd7 163d c6eb 063e 61a7 34be
00000360: 6781 72bd cd31 c33e f3e5 f73e 924f 003e
00000370: 0f9b c13d e80c d8bd b57e c6bc 64fd ea3d
00000380: 99f8 42be 9729 1c3c 8b5f e23d 8065 92bd
00000390: 6d39 dfbc 0ff7 c8bd 05b2 6f3d 8d00 3bbe
000003a0: 5138 443e 3a1c 48bd 78f5 2abd 5592 8b3e
000003b0: 3617 43be c35a a5bd 0144 a33d 7471 e9bd
000003c0: ead7 313d 6d92 8a3d 2a82 58bc a03b c4bd
000003d0: 6dc5 1a3e 498c 88bd 1624 6439 fa1d ffbd
000003e0: e0f3 07be a6b4 10be 1764 253e 1d9e 11be
000003f0: ac67 fdbd e3d6 60bd 5014 0f3e b899 2d3d
0.064607754 0.06877932 -0.025893241 0.066339456 0.02030086 0.060697455 0.16284043 0.22386168
0.15984304 -0.086913995 -0.0640796 0.24016815 0.1391959 0.041424993 0.1574283 0.05073682
0.29808283 0.18530996 0.06505066 0.10490639 -0.022262085 0.10387288 -0.027982077 0.017815834
0.120602205 -0.36264458 0.34459147 0.026900094 -0.028931534 0.2475367 -0.004206489 0.095117755
-0.011512615 0.101686634 -0.11957909 0.15738931 -0.25084233 0.05150835 -0.0023539253 0.007336892
0.23038723 0.022328671 0.029307513 0.16518113 -0.1258184 0.16750056 0.1857929 0.08380276
0.122276396 0.34302136 0.06155887 0.021263342 0.045678582 -0.063264176 0.22083554 0.22232762
0.2262325 0.13317852 0.22268906 0.047799543 0.11705267 0.042247586 0.095119335 0.06759179
0.19522397 -0.041540675 -0.042006657 0.18436292 0.025072062 0.12114209 0.1512379 -0.09709576
-0.078836694 -0.14413105 -0.10687784 0.02799886 0.14064966 0.0072591905 -0.037391428 0.07928563
0.22187524 0.0050844816 -0.052870285 0.028046187 0.09606024 0.048711605 0.17885269 -0.14803514
0.0133217005 0.3073869 -0.21684244 0.05516186 -0.025456026 -0.009714674 0.13190651 -0.00941914
-0.100601666 0.061143484 0.08132452 0.1659165 -0.017832084 0.14232168 0.2373369 0.08224323
0.15370798 -0.044621464 0.10603356 -0.18730521 -0.10948606 0.06289537 0.19255634 0.007302971
0.15021068 0.15132582 0.14901876 0.13265198 0.1535951 0.09244777 0.1012345 -0.053965643
0.10449812 0.10079056 0.11362938 0.11501781 0.04433585 0.16108076 -0.033875406 0.014149168
-0.0917002 0.019021472 -0.17426659 -0.2402042 0.14870264 -0.2133376 0.14004302 -0.18700254
0.07426664 0.07838449 0.1843028 -0.10055605 0.05979548 0.13807292 0.0661913 0.16831636
0.17813015 0.26968068 -0.16866846 -0.18415035 0.00052898255 -0.11573144 0.12997049 -0.17994516
-0.118884414 0.17758203 -0.14391237 0.1014404 0.12498359 -0.17724529 0.12249018 0.14422488
0.13366681 0.19189937 -0.05378389 0.15009616 0.08416551 -0.2264319 0.008448497 -0.053925928
0.11306859 0.1292308 -0.1695786 0.14955166 -0.039281104 0.016907163 -0.23797117 0.19107893
0.14019284 0.1291526 -0.15305229 -0.03625706 -0.14643422 0.101122946 -0.0006790374 0.18477179
0.14712213 -0.102158226 0.057350222 0.1755221 -0.0037137757 0.12616737 0.15989748 0.12143201
0.18841925 0.2087404 -0.23505268 0.28061315 -0.059057035 0.028697368 0.08067044 -0.072903
-0.052368827 -0.16692203 -0.02633967 0.10201195 0.2964718 -0.012802366 -0.07338956 -0.048927013
0.21142635 0.021656465 -0.07411033 0.05838424 0.034723826 0.03682677 0.13175878 -0.17641975
-0.05920544 0.38123932 0.48417625 0.12530354 0.09453403 -0.10549337 -0.02423034 0.11474112
-0.19040145 0.0095314 0.110533796 -0.07148266 -0.027249062 -0.09812748 0.058519382 -0.18261929
0.19162108 -0.048855044 -0.041738003 0.2726008 -0.19051823 -0.08073952 0.07971955 -0.113985926
0.043418802 0.0676621 -0.013214627 -0.09581685 0.15114374 -0.06667382 0.00021757217 -0.124568895
-0.13276625 -0.14131412 0.16151462 -0.14220472 -0.123732895 -0.054892432 0.13972592 0.042382926

linear.weight f4 [1, 64]
00000000: aebd a5bc 9359 153e 5100 95be a717 3bbe
00000010: dac6 8ebd 778e 9abe 01bf 053e 60c1 81be
00000020: 5461 cd3c 92f8 0d3f 96a9 413e 121c 433a
00000030: d6a3 42bf 5f1e 503e 6878 803e 0fcc ac3e
00000040: baa3 5ebe 9b72 cbbe 35fa 6fbc 10c4 223d
00000050: 38bb 65bf af97 b2bd f7e0 633e 7506 0dbf
00000060: 73fe 72be 9ecb debf cc72 bf3d 9d0b 6b3e
00000070: 037e 25bd aa7d 6dbe 227a 333e c434 1d3e
00000080: 6487 42bd 67d6 503e 5258 49bd ef74 7b3e
00000090: 3d87 82bf 621c 83be efb6 063e eeba e93e
000000a0: fa3c f13d 486c a33e 1972 05be 6f8c debe
000000b0: 8c97 2f3d edd6 ee3e 8583 31be e8ab 8d3e
000000c0: 85a2 1a3e dff0 83bd cac4 1ebe e6d7 94be
000000d0: 55d7 4cbe 2de5 b5be aa33 82be 5c34 a93e
000000e0: 29c1 0c3e 67b7 a3be 1d22 2d3e 1de3 fd3d
000000f0: e307 8fbe df38 673e 510b 6ebd ef15 643e
-0.020232048 0.14584951 -0.29101804 -0.18270741 -0.06971522 -0.30186817 0.13061143 -0.25342846
0.025070824 0.55457413 0.18912348 0.00074428425 -0.76031244 0.20324086 0.25091863 0.33749434
-0.21742144 -0.39735875 -0.014647056 0.03973776 -0.897388 -0.087203376 0.22253786 -0.5508798
-0.23729877 -1.7405889 0.09348068 0.22953649 -0.040403377 -0.23192468 0.17527059 0.1535216
-0.0474924 0.20394288 -0.049156494 0.24556325 -1.0197521 -0.25607592 0.13155721 0.4565043
0.117792085 0.3191855 -0.13031806 -0.43466517 0.042869136 0.4664835 -0.17335327 0.27670217
0.15101059 -0.06442427 -0.15504757 -0.29070967 -0.20004018 -0.3552641 -0.25430042 0.3304776
0.1374556 -0.31975862 0.16907544 0.12396834 -0.27935705 0.22580288 -0.05811626 0.22273992
