model1.pth (torch, 2189 bytes, 2 tensors)

embedding.weight f4 [5, 16]
0	0xbf95b045	-1.1694418
1	0xbfe82da1	-1.8138925
2	0x3ef93bc6	0.48678416
3	0xbfb982c8	-1.4493036
4	0xbf85459f	-1.0411872
5	0x3f3f3c22	0.7470113
6	0x3fdb9857	1.7155865
7	0x3faec575	1.3654009
8	0x3f835829	1.0261279
9	0x3f2bee8a	0.67160857
10	0xbdb88636	-0.09009974
11	0x4028342d	2.6281846
12	0x407b5f81	3.927704
13	0x401a0dba	2.4070878
14	0xbf508fa4	-0.8146918
15	0x3fd61dcb	1.6727842
16	0xc0727998	-3.7886715
17	0xbe7986b6	-0.24367794
18	0x400749a7	2.1138704
19	0xbf934ad6	-1.1507213
20	0xc044a9dd	-3.0728676
21	0x3fb66338	1.4249029
22	0x401ba03a	2.4316545
23	0x3eb3ef23	0.35143384
24	0x3ff77fc3	1.9335865
25	0x3fc0c8f6	1.5061328
26	0x3e979f79	0.29613855
27	0x401d5164	2.4580927
28	0xbf524c1f	-0.821474
29	0x3f82d926	1.0222518
30	0xbf0424b2	-0.5161849
31	0x40170037	2.359388
32	0xbf97328a	-1.1812298
33	0x4032ab7d	2.7917168
34	0x40380fd0	2.875965
35	0xbe9a1206	-0.30091876
36	0x3f5a7805	0.85339385
37	0x3f80e304	1.006928
38	0x3e8116ab	0.25212607
39	0xbe2beb08	-0.16788876
40	0xbf97324b	-1.1812223
41	0xbf793d07	-0.97358745
42	0xbf974189	-1.1816875
43	0x3f719480	0.9436722
44	0x405c0657	3.437887
45	0x3f758edd	0.9592112
46	0xc0326ce0	-2.7878952
47	0xbec8b8c7	-0.39203474
48	0x3f99e0cf	1.2021731
49	0xc07f7e19	-3.9920714
50	0xbfb0ecad	-1.3822228
51	0xc00686c9	-2.1019766
52	0x3d412bb9	0.047160838
53	0x3ff96871	1.9484998
54	0x3ca01d9a	0.019545365
55	0xbfb34595	-1.400561
56	0x3fce87de	1.6135213
57	0x400bbdef	2.1834676
58	0x3fda54db	1.7057146
59	0x3fa3439e	1.275501
60	0xbe08525e	-0.1331267
61	0x3fc3fd81	1.5311738
62	0x3fbb22c9	1.461999
63	0x3e0804c7	0.13283072
64	0xc004ed84	-2.0769968
65	0x3ba2fbf6	0.0049738837
66	0x400aea23	2.1705406
67	0xbfb844b6	-1.4395969
68	0xbf671783	-0.9027025
69	0x3f892a63	1.071606
70	0x4002572f	2.0365713
71	0x3fde01bb	1.7344278
72	0x4034580e	2.8178744
73	0x40397a49	2.8980887
74	0x3f71b25a	0.9441277
75	0x3ec0e7b7	0.37676784
76	0x3f4b5022	0.7941915
77	0x40229486	2.5403152
78	0xbda09321	-0.078405626
79	0x3f0b3e28	0.5439172

linear_lstm_layer.weight f4 [1, 32]
0	0x3e847148	0.25867677
1	0x3faa6772	1.3312819
2	0xbe54554f	-0.20735668
3	0x3f581799	0.8441101
4	0x3f35f3d3	0.7107517
5	0xbf09efdb	-0.53881615
6	0xbf22da44	-0.63614297
7	0xbf05ecda	-0.5231453
8	0xbf4ae5f4	-0.7925713
9	0xbee23b6d	-0.44185963
10	0xbf02d639	-0.5110813
11	0xbf0c9172	-0.5490943
12	0xbe2985bb	-0.1655492
13	0xbf8b0fa8	-1.0864153
14	0xbeb42ffd	-0.35192862
15	0xbf209c54	-0.6273854
16	0x3f226a75	0.6344369
17	0xbf6c50d5	-0.9231084
18	0xbf510f9c	-0.81664443
19	0x3e9a712e	0.30164474
20	0x3f01bd1b	0.5067918
21	0xbefa17c5	-0.4884626
22	0xbf4f742c	-0.8103664
23	0xbf886a21	-1.0657388
24	0xbe575528	-0.21028578
25	0xbde68f76	-0.11257832
26	0x3e53c5b4	0.20680887
27	0xbf05da95	-0.52286655
28	0xbf5bcf3b	-0.85863084
29	0xbf8985e2	-1.0743983
30	0x3f50de7b	0.8158948
31	0xbee011e0	-0.43763638
